{"class_name": "Sequential", "keras_version": "2.0.6", "config": [{"class_name": "Dense", "config": {"kernel_initializer": {"class_name": "VarianceScaling", "config": {"distribution": "normal", "scale": 2.0, "seed": null, "mode": "fan_in"}}, "name": "dense_41", "kernel_constraint": null, "bias_regularizer": null, "bias_constraint": null, "dtype": "float32", "activation": "linear", "trainable": true, "kernel_regularizer": null, "bias_initializer": {"class_name": "Zeros", "config": {}}, "units": 100, "batch_input_shape": [null, 63], "use_bias": true, "activity_regularizer": null}}, {"class_name": "PReLU", "config": {"name": "p_re_lu_31", "alpha_constraint": null, "trainable": true, "alpha_regularizer": null, "alpha_initializer": {"class_name": "Zeros", "config": {}}, "shared_axes": null}}, {"class_name": "Dense", "config": {"kernel_initializer": {"class_name": "VarianceScaling", "config": {"distribution": "normal", "scale": 2.0, "seed": null, "mode": "fan_in"}}, "name": "dense_42", "kernel_constraint": null, "bias_regularizer": null, "bias_constraint": null, "activation": "linear", "trainable": true, "kernel_regularizer": null, "bias_initializer": {"class_name": "Zeros", "config": {}}, "units": 100, "use_bias": true, "activity_regularizer": null}}, {"class_name": "PReLU", "config": {"name": "p_re_lu_32", "alpha_constraint": null, "trainable": true, "alpha_regularizer": null, "alpha_initializer": {"class_name": "Zeros", "config": {}}, "shared_axes": null}}, {"class_name": "Dense", "config": {"kernel_initializer": {"class_name": "VarianceScaling", "config": {"distribution": "normal", "scale": 2.0, "seed": null, "mode": "fan_in"}}, "name": "dense_43", "kernel_constraint": null, "bias_regularizer": null, "bias_constraint": null, "activation": "linear", "trainable": true, "kernel_regularizer": null, "bias_initializer": {"class_name": "Zeros", "config": {}}, "units": 100, "use_bias": true, "activity_regularizer": null}}, {"class_name": "PReLU", "config": {"name": "p_re_lu_33", "alpha_constraint": null, "trainable": true, "alpha_regularizer": null, "alpha_initializer": {"class_name": "Zeros", "config": {}}, "shared_axes": null}}, {"class_name": "Dense", "config": {"kernel_initializer": {"class_name": "VarianceScaling", "config": {"distribution": "normal", "scale": 1.0, "seed": null, "mode": "fan_avg"}}, "name": "dense_44", "kernel_constraint": null, "bias_regularizer": null, "bias_constraint": null, "activation": "linear", "trainable": true, "kernel_regularizer": null, "bias_initializer": {"class_name": "Zeros", "config": {}}, "units": 1, "use_bias": true, "activity_regularizer": null}}], "backend": "theano"}