{"class_name": "Sequential", "keras_version": "2.0.6", "config": [{"class_name": "Dense", "config": {"kernel_initializer": {"class_name": "VarianceScaling", "config": {"distribution": "normal", "scale": 2.0, "seed": null, "mode": "fan_in"}}, "name": "dense_37", "kernel_constraint": null, "bias_regularizer": null, "bias_constraint": null, "dtype": "float32", "activation": "relu", "trainable": true, "kernel_regularizer": null, "bias_initializer": {"class_name": "Zeros", "config": {}}, "units": 100, "batch_input_shape": [null, 49], "use_bias": true, "activity_regularizer": null}}, {"class_name": "Dense", "config": {"kernel_initializer": {"class_name": "VarianceScaling", "config": {"distribution": "normal", "scale": 2.0, "seed": null, "mode": "fan_in"}}, "name": "dense_38", "kernel_constraint": null, "bias_regularizer": null, "bias_constraint": null, "activation": "selu", "trainable": true, "kernel_regularizer": null, "bias_initializer": {"class_name": "Zeros", "config": {}}, "units": 100, "use_bias": true, "activity_regularizer": null}}, {"class_name": "Dense", "config": {"kernel_initializer": {"class_name": "VarianceScaling", "config": {"distribution": "normal", "scale": 2.0, "seed": null, "mode": "fan_in"}}, "name": "dense_39", "kernel_constraint": null, "bias_regularizer": null, "bias_constraint": null, "activation": "selu", "trainable": true, "kernel_regularizer": null, "bias_initializer": {"class_name": "Zeros", "config": {}}, "units": 100, "use_bias": true, "activity_regularizer": null}}, {"class_name": "Dense", "config": {"kernel_initializer": {"class_name": "VarianceScaling", "config": {"distribution": "normal", "scale": 2.0, "seed": null, "mode": "fan_in"}}, "name": "dense_40", "kernel_constraint": null, "bias_regularizer": null, "bias_constraint": null, "activation": "selu", "trainable": true, "kernel_regularizer": null, "bias_initializer": {"class_name": "Zeros", "config": {}}, "units": 100, "use_bias": true, "activity_regularizer": null}}, {"class_name": "Dense", "config": {"kernel_initializer": {"class_name": "VarianceScaling", "config": {"distribution": "normal", "scale": 2.0, "seed": null, "mode": "fan_in"}}, "name": "dense_41", "kernel_constraint": null, "bias_regularizer": null, "bias_constraint": null, "activation": "selu", "trainable": true, "kernel_regularizer": null, "bias_initializer": {"class_name": "Zeros", "config": {}}, "units": 100, "use_bias": true, "activity_regularizer": null}}, {"class_name": "Dense", "config": {"kernel_initializer": {"class_name": "VarianceScaling", "config": {"distribution": "normal", "scale": 1.0, "seed": null, "mode": "fan_avg"}}, "name": "dense_42", "kernel_constraint": null, "bias_regularizer": null, "bias_constraint": null, "activation": "linear", "trainable": true, "kernel_regularizer": null, "bias_initializer": {"class_name": "Zeros", "config": {}}, "units": 6, "use_bias": true, "activity_regularizer": null}}], "backend": "theano"}