{"class_name": "Sequential", "backend": "theano", "config": [{"class_name": "Dense", "config": {"batch_input_shape": [null, 51], "activity_regularizer": null, "bias_constraint": null, "kernel_regularizer": null, "kernel_initializer": {"class_name": "VarianceScaling", "config": {"seed": null, "mode": "fan_in", "scale": 2.0, "distribution": "normal"}}, "activation": "selu", "bias_initializer": {"class_name": "Zeros", "config": {}}, "use_bias": true, "name": "dense_19", "dtype": "float32", "units": 100, "trainable": true, "kernel_constraint": null, "bias_regularizer": null}}, {"class_name": "Dense", "config": {"activation": "selu", "bias_constraint": null, "kernel_regularizer": null, "activity_regularizer": null, "kernel_initializer": {"class_name": "VarianceScaling", "config": {"seed": null, "mode": "fan_in", "scale": 2.0, "distribution": "normal"}}, "bias_initializer": {"class_name": "Zeros", "config": {}}, "use_bias": true, "name": "dense_20", "units": 100, "trainable": true, "kernel_constraint": null, "bias_regularizer": null}}, {"class_name": "Dense", "config": {"activation": "selu", "bias_constraint": null, "kernel_regularizer": null, "activity_regularizer": null, "kernel_initializer": {"class_name": "VarianceScaling", "config": {"seed": null, "mode": "fan_in", "scale": 2.0, "distribution": "normal"}}, "bias_initializer": {"class_name": "Zeros", "config": {}}, "use_bias": true, "name": "dense_21", "units": 100, "trainable": true, "kernel_constraint": null, "bias_regularizer": null}}, {"class_name": "Dense", "config": {"activation": "selu", "bias_constraint": null, "kernel_regularizer": null, "activity_regularizer": null, "kernel_initializer": {"class_name": "VarianceScaling", "config": {"seed": null, "mode": "fan_in", "scale": 2.0, "distribution": "normal"}}, "bias_initializer": {"class_name": "Zeros", "config": {}}, "use_bias": true, "name": "dense_22", "units": 100, "trainable": true, "kernel_constraint": null, "bias_regularizer": null}}, {"class_name": "Dense", "config": {"activation": "selu", "bias_constraint": null, "kernel_regularizer": null, "activity_regularizer": null, "kernel_initializer": {"class_name": "VarianceScaling", "config": {"seed": null, "mode": "fan_in", "scale": 2.0, "distribution": "normal"}}, "bias_initializer": {"class_name": "Zeros", "config": {}}, "use_bias": true, "name": "dense_23", "units": 100, "trainable": true, "kernel_constraint": null, "bias_regularizer": null}}, {"class_name": "Dense", "config": {"activation": "linear", "bias_constraint": null, "kernel_regularizer": null, "activity_regularizer": null, "kernel_initializer": {"class_name": "VarianceScaling", "config": {"seed": null, "mode": "fan_avg", "scale": 1.0, "distribution": "normal"}}, "bias_initializer": {"class_name": "Zeros", "config": {}}, "use_bias": true, "name": "dense_24", "units": 3, "trainable": true, "kernel_constraint": null, "bias_regularizer": null}}], "keras_version": "2.0.6"}